models/chatbot_model.pth (torch, 77632 bytes, 4 tensors)

fc1.weight f4 [64, 160]
000000 2a 51 f7 3e c0 bf 9a be 8c e1 11 3f 2b c1 a8 be
       0.4830411 -0.3022442 0.5698478 -0.32959875
000010 0c e7 b3 3e 19 23 42 be 8e ce ff be 4e 9f db be
       0.35137212 -0.18958701 -0.49962276 -0.42894977
000020 75 87 b9 be 1d e2 1b 3d 42 25 06 bf 7c 46 0e 3f
       -0.36236158 0.038057435 -0.524006 0.555763
000030 2c 63 e4 3e ba 96 d9 3e 99 4d 01 3f 2b c8 cc 3e
       0.44606912 0.42497808 0.5050903 0.39996466
000040 f7 f8 ce be dd b5 be be f2 54 e8 3e ed 82 f2 3e
       -0.4042432 -0.37248126 0.45377308 0.47365513
000050 6b a4 32 be a5 25 d9 be e1 8f c1 bc 05 06 fc be
       -0.17445533 -0.42411533 -0.023628177 -0.49223343
000060 76 b1 ac 3e 91 a0 f1 be 49 95 47 3e 6d 15 f6 3e
       0.33729142 -0.47192815 0.19490542 0.48063222
000070 07 cf f2 3e b4 88 e4 be 80 d4 02 bf eb 5c a6 be
       0.47423574 -0.44635546 -0.511055 -0.32492766
000080 d6 9b a8 be 0b e7 f3 be 09 ec d2 be 2e 3a 95 be
       -0.32931393 -0.4763721 -0.41195706 -0.2914595
000090 1a 8d c6 3e 09 ce ce be 95 b8 97 be 7a 14 f1 3e
       0.38779527 -0.40391567 -0.29633012 0.47085935
0000a0 0a 0c d9 be 61 48 05 bf 98 19 14 3f 30 f0 e1 be
       -0.42391998 -0.52063566 0.5785155 -0.4412856
0000b0 72 5a e5 3e 2c 99 ed be 58 a4 b9 be b2 fb cb be
       0.44795567 -0.46405923 -0.36258197 -0.39840466
0000c0 c8 d4 0a 3f 66 f3 cf 3e 15 af 0e 3e 88 43 1d 3f
       0.5423093 0.40615386 0.13933976 0.6143117
0000d0 6f 3f c4 be 8f 4f 82 be b1 94 b8 be 44 1a 39 be
       -0.38329646 -0.25451323 -0.36050943 -0.18076426
0000e0 86 71 e2 3e 52 28 ee be d2 a9 0c 3f ed 22 16 3f
       0.44227237 -0.46515137 0.54946625 0.5864704
0000f0 25 fc fb 3e 5d 83 ce be 49 ef ff be e9 5c e3 be
       0.4921581 -0.40334597 -0.49987248 -0.44406822
000100 fc 91 ba 3e 8b 0d f5 3e 9b fc d9 3e e1 7b 05 bf
       0.36439502 0.47861895 0.42575535 -0.5214215
000110 d9 d1 ad be 01 96 0b bf 46 e8 ae 3e cd 33 02 3f
       -0.33949164 -0.5452576 0.34161586 0.5086029
000120 65 2e fa be a3 98 9d be 19 73 a8 3e 1d 75 a4 be
       -0.4886352 -0.30780515 0.32900313 -0.321206
000130 b5 06 cf 3e 01 da 17 3f 19 29 ef 3e 86 86 e0 be
       0.40434805 0.5931702 0.46711043 -0.43852633
000140 ee d1 c8 3e 70 42 b3 3e c8 1d c3 be ef 72 e5 be
       0.39222664 0.35011625 -0.3810866 -0.4481425
000150 62 52 f0 be 6e b3 f3 bd 7a 57 f3 be fe 00 d6 be
       -0.46937853 -0.11899458 -0.47527677 -0.41797632
000160 93 03 39 3e fc 74 de 3e a3 d3 94 be 0a 25 c3 be
       0.1806777 0.43448627 -0.29067716 -0.38114196
000170 44 c0 d0 be e8 f9 b9 be 4f 5f b1 be d7 cf cf be
       -0.40771687 -0.36323476 -0.34643027 -0.40588257
000180 10 29 d0 3e 54 11 03 3f cb 5f 6b be b5 f8 f1 be
       0.40656328 0.51198316 -0.22985761 -0.4726006
000190 e7 91 b9 be f2 49 f1 3e 15 53 01 be 45 c9 07 3f
       -0.36244127 0.47126728 -0.1262935 0.5304149
0001a0 d1 83 06 3f 81 f5 cf be 27 24 02 3e 37 25 57 be
       0.52544886 -0.40616992 0.12709104 -0.2101029
0001b0 4e fd 09 3f c4 16 c6 3e 7d a7 34 be 7b 99 dd be
       0.5390214 0.38689244 -0.17642017 -0.4328116
0001c0 db 53 c3 be bd ea e1 3e 19 9c b8 3e b1 3c f5 3e
       -0.38149914 0.44124404 0.36056593 0.47897866
0001d0 fe 65 e1 3e 8e 70 d4 3e f5 f7 be be 43 ac 10 bf
       0.44023126 0.41492122 -0.3729855 -0.5651285
0001e0 a8 df 3e bd 2e 52 f9 3e 2b dd 03 3f b0 e6 b5 be
       -0.046600014 0.4869551 0.5150935 -0.35527563
0001f0 cb 17 c4 be ff a5 d4 be 1b 47 f6 3e 0b 08 f7 be
       -0.38299403 -0.41532895 0.48101124 -0.48248324
000200 d6 ce 08 3f 7c 46 ec be 5c d1 7b be cd a8 10 bf
       0.53440607 -0.46147525 -0.24591583 -0.5650757
000210 6c c7 df be fa 13 04 3f e8 f2 a1 3e 8c c7 b9 be
       -0.43706834 0.5159298 0.31630635 -0.36285055
000220 e1 60 e8 3e 6d a4 eb 3e d3 78 c0 be e4 1e 0c 3f
       0.45386413 0.46023884 -0.37592182 0.54734635
000230 9b 0c fa 3e 0a bc e5 be ce a4 fa 3e 8f a3 01 bf
       0.48837742 -0.44870025 0.4895386 -0.50640196
000240 e9 f1 fb 3e d8 1e c1 3e 54 91 a2 be a2 df d6 3e
       0.49208 0.37718844 -0.31751502 0.41967493
000250 d3 66 fd be 8c 11 9b be 9d c9 d9 3e 4c 7a e5 3e
       -0.4949251 -0.30286825 0.4253663 0.44819868
000260 67 d0 06 3f 0e 32 9c be 93 dc b4 3e 86 fe d4 be
       0.52661747 -0.3050694 0.35324535 -0.41600436
000270 ad 64 ba be 14 48 45 3d 5c 25 f8 3e 33 62 09 3f
       -0.36404935 0.048164442 0.48466003 0.53665465
000280 45 09 9d be 9a b3 0a 3f 2e 20 a4 be 9c cb 81 be
       -0.30671135 0.541803 -0.320558 -0.25350654
000290 b7 cb 3a be c9 dd ab 3e 66 37 b5 be a3 15 fc be
       -0.18241774 0.33567646 -0.35393828 -0.49235258
0002a0 4b 8c ef be 63 f8 ee be 19 04 ca be 02 c0 dc 3e
       -0.46786723 -0.4667388 -0.3945625 0.4311524
0002b0 ef 45 b6 be 66 88 d5 3e 72 21 aa be 68 1f a0 3e
       -0.3560023 0.41705626 -0.33228642 0.3127396
0002c0 a9 96 8e 3e 7d 57 f9 3d 73 c0 07 3f 29 a2 a9 be
       0.2784932 0.1217489 0.5302803 -0.3313153
0002d0 9a 6b 93 3e 42 3d 98 3e 9c 93 e3 be 85 33 11 be
       0.2879303 0.29734236 -0.44448555 -0.1417981
0002e0 76 3a b2 be 39 0e f0 be 29 9f f5 be 3d 4b b2 3e
       -0.34810227 -0.4688585 -0.47972992 0.34823027
0002f0 b0 44 f0 3e a8 c2 93 be 99 52 cd 3e 0f 2e 0b 3f
       0.46927404 -0.28859448 0.4010208 0.54367155
000300 17 ff fe 3e a6 74 0b 3f a8 18 91 3e 1d 92 e2 3e
       0.49803993 0.54474866 0.28339124 0.442521
000310 d1 e4 a2 3e 74 ff 01 3f df 37 97 be 3f 5e b7 be
       0.31815198 0.50780416 -0.29534814 -0.35814092
000320 61 da 64 be 2d bd 0a be c1 a2 77 be 1f 8e 00 be
       -0.2234893 -0.13548727 -0.2418318 -0.12554215
000330 ac d1 83 be d2 2e 7e be e0 b6 0d 3e f2 b1 63 be
       -0.25745904 -0.24822548 0.13839293 -0.2223585
000340 b6 a1 c7 be 78 8d a7 be 4c 31 e3 be b7 b3 04 bf
       -0.38990563 -0.3272512 -0.44373548 -0.51836723
000350 cd de 8e be c6 ed 14 be ab e3 31 be 57 01 cb bd
       -0.27904359 -0.14543828 -0.17372005 -0.09912365
000360 5d d0 47 be d8 42 b6 be 1b a0 a6 bd 38 a6 0a be
       -0.19513078 -0.35597873 -0.081360064 -0.1353997
000370 d5 e7 43 be 50 31 73 be 9e 14 07 3f 58 b5 9b be
       -0.19131406 -0.2374928 0.52765834 -0.30411792
000380 94 68 31 be 99 07 84 bd a4 f9 fc 3e 0d 09 09 3f
       -0.1732505 -0.06446762 0.4940921 0.53529435
000390 4b 18 fc 3e 3a 36 b2 be 46 8c 7f 3e e6 ba 0b 3f
       0.49237284 -0.34806997 0.24955854 0.5458206
0003a0 1a 23 bb be be c6 c7 be f6 f5 cc bd d4 f0 a0 be
       -0.36550218 -0.39018816 -0.10007851 -0.31433737
0003b0 a7 3e 04 bf 19 1e 09 be 47 2c f9 be f3 e8 f2 be
       -0.516581 -0.13390388 -0.48666593 -0.4744335
0003c0 74 0a 7e bd ea 80 c1 3e 20 20 b2 3e ca f8 5d be
       -0.062021688 0.37793666 0.34790134 -0.21676937
0003d0 0e 17 fa 3e b4 51 04 3f c7 f5 09 be cb 5c 7d 3e
       0.48845714 0.5168717 -0.13472663 0.24742429
0003e0 7f 99 11 3f b1 0c ec 3e 4f 53 7b 3d 19 ff 2a be
       0.5687484 0.46103433 0.061358746 -0.16698875
0003f0 60 00 c0 3e d8 77 e4 be fb ea 02 bf 77 bb cb be
       0.37500286 -0.44622684 -0.511398 -0.39791462

fc1.bias f4 [64]
000000 d1 d8 fa 3e 2e 48 70 3e 3c 1b bc 3e e5 28 b4 3e
       0.48993543 0.23465034 0.36739528 0.3518745
000010 d2 46 be 3e ce a5 af 3e 0d 28 de 3e 9b 4f f2 3e
       0.37163407 0.34306186 0.4338993 0.4732636
000020 61 ee b6 3e d2 ca 06 3f 5a 3d d7 3e 3c 35 e1 3e
       0.35728744 0.5265323 0.42038995 0.43985927
000030 8b 77 d7 3e af 6a eb 3e 50 3f bc 3e 2e d7 9b 3e
       0.42083392 0.4597983 0.36767054 0.30437607
000040 04 8e bc 3e c3 09 0c be b7 91 e9 3e 08 32 cd 3e
       0.368271 -0.13675599 0.45618984 0.40077233
000050 8e 99 cf 3e d4 cb ce 3e 2e 9a f5 3e 01 76 f0 3e
       0.4054684 0.40389884 0.47969192 0.4696503
000060 de 4a b9 3e 4d ee 08 3f d2 f8 b8 3e db af 07 3f
       0.36189932 0.5348862 0.36127335 0.5300271
000070 be 97 b9 3e a3 5a e2 3e 1f af ba 3e 6e ff 9b 3e
       0.36248583 0.44209775 0.36461732 0.30468315
000080 e4 ed ce 3e 0f 0d c7 3e f6 da eb 3e b6 60 02 3f
       0.4041587 0.3887715 0.4606549 0.5092882
000090 71 a8 e3 3e 72 93 b6 3e d5 37 c7 3e e4 ef ea 3e
       0.44464448 0.35659367 0.38909784 0.45886147
0000a0 27 d9 f7 3e 7d ba da 3e ba 1a dc 3e 4e c7 f1 3e
       0.48407862 0.42720404 0.4298914 0.4722237
0000b0 83 fd d1 3e c9 1f 01 3f 56 6c e4 3e 7c 97 a6 3e
       0.41013727 0.50439125 0.44613904 0.32537448
0000c0 f1 d8 ec 3e d4 f4 a3 3e 78 25 f7 3e 27 0d ee 3e
       0.46259263 0.32022727 0.48270774 0.4649441
0000d0 88 cd 9e 3e ed 3c c6 3e a5 4b d9 3e 2c f4 ea 3e
       0.31016183 0.38718358 0.42440525 0.45889413
0000e0 07 f9 c6 3e cc eb c4 3e a1 ca d9 3e 4d ad ef 3e
       0.38861868 0.3846115 0.42537406 0.46811906
0000f0 b2 08 f2 3e 87 7c bb 3e 66 28 b2 3e ba 1e b7 3e
       0.4727226 0.36618444 0.34796447 0.3576563

fc2.weight f4 [132, 64]
000000 c5 9e 08 3f d9 c1 0e bf 70 01 00 3f 37 44 f5 be
       0.53367263 -0.5576454 0.50002193 -0.47903606
000010 5e de 03 bf 17 b9 03 bf 2a 0a ef be 58 b0 f8 3e
       -0.5151118 -0.514543 -0.46687442 0.4857204
000020 e1 30 10 bf 3e 22 f0 be 60 98 16 bf 54 81 00 3f
       -0.56324583 -0.46901125 -0.58826256 0.5019734
000030 e0 91 e6 be b8 d1 11 3f 9e e0 ef 3e 34 fd 10 bf
       -0.4503317 0.5696063 0.46851057 -0.5663636
000040 c2 4f fb be 6a b4 1f bc aa d2 15 bf 94 ad 07 bf
       -0.49084288 -0.009747604 -0.5852457 -0.52999234
000050 1a af e4 3e 4d 76 52 3e f0 5d 0b 3e a8 0f d4 be
       0.44664842 0.2055294 0.13610053 -0.41418195
000060 47 7e c8 3e 33 ad 09 3f 19 d9 c7 be 73 ed e3 be
       0.39158842 0.53779906 -0.3903282 -0.44517097
000070 c5 f5 fc be 11 60 17 bf a9 29 2a bf 24 c5 1a bf
       -0.49406257 -0.5913096 -0.6646982 -0.6045706
000080 77 e8 13 3f a1 80 42 3e a8 31 9d 3e f9 2b f6 3e
       0.5777659 0.1899438 0.30701947 0.48080423
000090 9b 0d e7 3e 1d 72 d9 be 05 06 fc be 11 8e 17 bf
       0.45127568 -0.42469874 -0.49223343 -0.5920115
0000a0 1f c8 14 bf de e7 10 3f 80 d1 cb 3e c4 44 04 bf
       -0.5811786 0.566038 0.39808273 -0.5166743
0000b0 35 63 03 bf 68 a0 f5 3e 47 bc 06 3f e1 81 9c 3d
       -0.5132325 0.47973943 0.5263104 0.0764196
0000c0 e3 08 8b 3d 98 4d cd be 5a 12 0e 3f 11 63 ef 3e
       0.067888044 -0.40098262 0.5549675 0.4675527
0000d0 94 2d e8 3e 8d fa 0a 3f 45 b3 15 bf 12 9f d2 3e
       0.45347273 0.5428856 -0.5847667 0.41136986
0000e0 fe 7b de be 5b 6b b6 3e 45 f8 ff be ea eb dd be
       -0.43453974 0.3562878 -0.49994102 -0.4334405
0000f0 be 4a 05 3f d2 85 1f 3f c9 84 19 bf e0 7c 21 bf
       0.5206717 0.6231357 -0.5996824 -0.6308117
000100 74 cc 1b 3f 4a 89 0d bf 10 91 a0 3e 02 dd 2a bf
       0.60858846 -0.5528761 0.31360674 -0.6674348
000110 07 db 19 3f f5 2f 15 bf 06 6c 24 bf ab 51 bd 3e
       0.60099834 -0.582763 -0.6422733 0.3697637
000120 a9 b7 de be 24 ea 6f be d5 ef f3 3e 1d 02 ed be
       -0.43499497 -0.23429161 0.47643915 -0.46290675
000130 da 54 fa be ef e1 22 3f e8 94 ba be d1 f7 03 bf
       -0.48892862 0.63626 -0.3644173 -0.5155001
000140 11 47 31 bf 60 7a 6b 3c e0 25 26 3f 51 66 19 3f
       -0.69249064 0.014372438 0.6490154 0.5992175
000150 55 ce a1 bd 40 19 9e be 2a 75 01 3f d1 21 04 bf
       -0.07900683 -0.3087864 0.50569403 -0.516141
000160 82 b2 8b be be bb c3 3e 57 b1 19 bf 45 59 11 bf
       -0.27284628 0.38229173 -0.60036224 -0.5677684
000170 47 22 0b bf c3 17 25 3f 93 63 fc be 16 f7 e9 be
       -0.5434918 0.6448938 -0.4929472 -0.45696324
000180 7f 98 e0 be c9 14 12 bf 1d 20 18 3f a9 34 91 be
       -0.43866345 -0.57062966 0.59424 -0.2836049
000190 37 ac ae 3e 05 2d 1f bf eb 44 06 bf e0 19 14 3e
       0.34115764 -0.6217807 -0.5244891 0.14462996
0001a0 5c aa 21 be 80 85 0a bf 05 1b 03 3f d7 bd 29 be
       -0.15787643 -0.54109955 0.51213104 -0.16576324
0001b0 38 4e d5 3e a6 82 29 3f d9 4b 0d 3f 2f 27 b1 3e
       0.4166124 0.6621498 0.5519386 0.34600207
0001c0 4f c3 07 3f aa d6 d6 be b1 c6 19 3f 31 69 eb be
       0.5303239 -0.4196065 0.60068804 -0.45978692
0001d0 c2 78 04 3f b1 63 07 3f d0 e0 03 bf 45 0d 4b 3d
       0.5174676 0.5288649 -0.5151491 0.0495732
0001e0 9e 7e 1b bf 72 fa 13 3f 2e f3 06 bf 8f 12 11 bf
       -0.6074008 0.57804024 -0.5271481 -0.56668943
0001f0 73 3e 00 3f 0d 43 c7 be e2 60 23 bf 55 1d 06 bf
       0.5009529 -0.38918343 -0.63819706 -0.5238851
000200 0b 35 d5 3e 99 4f 20 bf c0 3a 09 bf 0d 19 d6 be
       0.4164203 -0.62621456 -0.5360527 -0.41815987
000210 8d 4f fc be ad 0d 1a bf 75 b6 8c be 4f d2 e9 3e
       -0.49279442 -0.6017712 -0.27482954 0.45668265
000220 0a e5 03 3e 85 83 13 bf a2 d1 f0 3e 50 63 e6 be
       0.1288034 -0.5762256 0.47034937 -0.44997644
000230 ce 0d be 3e 67 c3 c3 be ae 21 0e bf 89 60 e6 be
       0.37119907 -0.38235018 -0.5552014 -0.44995525
000240 0f a4 ee be ab f0 2a 3d 19 11 46 bd 41 ac f7 3e
       -0.46609542 0.041733425 -0.04835615 0.48373607
000250 52 06 e0 3e 91 78 f1 be a7 a7 bb be 96 05 1d bf
       0.43754822 -0.47162297 -0.36651346 -0.6133665
000260 9c 20 cb be 8e 24 0d bf 57 84 26 bf d7 8d f8 be
       -0.39673316 -0.55133903 -0.65045685 -0.48545715
000270 59 fe 08 bf 31 c4 03 3f 97 99 dc 3e cb f6 9e 3e
       -0.53513104 0.5147124 0.4308593 0.31047663
000280 7d 4c 0f 3f 7e 4c ff be f7 c0 10 bf f5 b6 05 3f
       0.55976087 -0.49863046 -0.5654444 0.52232295
000290 00 51 db be 26 8c 37 bf ff 0d 17 bf b6 39 02 bf
       -0.42835236 -0.71698225 -0.5900573 -0.5086931
0002a0 60 4d 1f bf 17 ac 10 3f 45 90 01 bf 2b 07 1b bf
       -0.6222744 0.5651259 -0.5061076 -0.6055781
0002b0 b2 1b 49 3e 78 53 ee 3e a5 08 15 3f 62 76 06 3f
       0.19639471 0.46548057 0.58216316 0.5252439
0002c0 4d 8f e9 3e 8c 34 d6 be 3d 9a fb be 35 be cb 3e
       0.45617142 -0.41836965 -0.49141112 0.39793554
0002d0 aa 7c 1c bf 36 01 dc 3e dd 7f 02 bf 6d e9 fe 3e
       -0.6112772 0.42969674 -0.50976354 0.49787465
0002e0 d0 0a f7 be a6 47 af 3e 24 f8 24 bf 14 35 67 3e
       -0.48250437 0.3423435 -0.6444113 0.22578841
0002f0 98 81 a7 3e ab 8e 0b 3f 1c 85 f4 be 7f 30 13 bf
       0.3271606 0.5451457 -0.47757804 -0.57495874
000300 5d 12 f1 be 92 89 c9 3e 14 88 1b bd ea 95 07 bf
       -0.47084323 0.3936277 -0.03797157 -0.52963126
000310 d5 43 0b bf 68 b7 cd be 3e 46 bb be 87 0a 9f 3e
       -0.5440038 -0.4017899 -0.36577028 0.3106272
000320 a9 83 b0 be 46 6c 4b be d1 9a 5d 3e 83 78 ef 3e
       -0.3447545 -0.19865522 0.21641089 0.4677163
000330 75 4f 15 bf 7b 22 c9 3e 8f 18 37 3b a7 00 0f 3f
       -0.58324367 0.3928412 0.0027938222 0.5586037
000340 d8 f7 09 bf 42 81 09 be ca 1f bc 3e 21 f9 07 3f
       -0.53893805 -0.13428214 0.36743003 0.53114516
000350 58 2c 04 3f 1d c1 db 3e d1 16 38 3f 78 97 68 be
       0.51630163 0.4292077 0.71909815 -0.2271403
000360 fd 82 ff 3e e0 d8 dc 3e 9b 01 c4 be f5 e0 ca be
       0.49904624 0.43134212 -0.38282475 -0.39624754
000370 15 c5 1c bf e5 ee e7 be f8 bb 13 3f 8a 09 47 3e
       -0.61238223 -0.4529945 0.5770869 0.19437233
000380 8c fb 1b bf 4e a3 13 bf 9a 51 d0 3e 06 77 9e 3e
       -0.60930705 -0.5767106 0.40687257 0.30950183
000390 c3 75 fc be d0 14 1a bf f4 59 0b bf 26 24 79 3b
       -0.49308595 -0.6018801 -0.5443413 0.003801593
0003a0 ce cd 06 bf 88 21 1b 3e 0f eb 2b be b7 4a 18 bf
       -0.52657783 0.1514951 -0.16788886 -0.59489006
0003b0 a6 9e 99 3e a4 6e d8 be 8a 6f 20 3f e1 58 b6 3e
       0.30003852 -0.42271912 0.62670195 0.35614684
0003c0 3f c0 d3 be cb 1d 00 bf 15 4a 8f 3e 9c 57 c6 3e
       -0.4135761 -0.5004546 0.27986208 0.38738716
0003d0 c1 fe 04 3f 1f 04 bc 3e df 07 b2 be 41 1b 92 3e
       0.51951224 0.36721894 -0.3477163 0.28536418
0003e0 06 95 b9 be e1 a2 23 3f 1b 99 ac be bf 27 bd be
       -0.36246508 0.6392041 -0.3371056 -0.36944386
0003f0 cc 96 65 bd d7 9e c8 3e 08 a2 13 3f 24 c5 c2 be
       -0.056052014 0.39183685 0.57669115 -0.3804103

fc2.bias f4 [132]
000000 da 53 8a be ae 9e df be 26 c7 e6 bd b9 28 b8 be
       -0.270171 -0.4367575 -0.11268453 -0.3596857
000010 12 46 90 3e 07 0b c1 be 95 89 e6 be 1d 9d cf 3e
       0.2817846 -0.37703726 -0.45026842 0.40549555
000020 ac 7b 99 3e 25 e3 90 bd 53 d6 d5 3e 22 94 78 3e
       0.29977167 -0.070745744 0.4176508 0.24275258
000030 88 e7 4c 3e 0a 98 a4 3e 13 80 d2 bd 52 31 b0 be
       0.20010197 0.32147247 -0.102783345 -0.34412628
000040 23 5a 7d 3e b9 a4 b5 be a2 6a b0 be 2d b7 9f 3e
       0.24741416 -0.35477236 -0.34456354 0.3119444
000050 aa 54 67 be 45 0a eb 3e 15 dd cb bd 90 fe 2d 3e
       -0.2259089 0.45906273 -0.099542774 0.16991639
000060 6b db c9 be e4 77 9b be 22 62 0a be 8e 08 d0 3e
       -0.39425215 -0.30364907 -0.13513997 0.40631527
000070 bf 14 86 be b6 de 8a be 74 ac b1 be ef 0c a4 3e
       -0.26187703 -0.2712304 -0.34701884 0.32041118
000080 eb 1b e3 3e 96 49 27 3e ca 7e e2 3e 29 6b bc 3e
       0.44357237 0.16336665 0.44237357 0.36800507
000090 b6 23 a1 be eb 69 e4 3e 0b ef 99 3e 6d d4 4a 3e
       -0.31472558 0.4461206 0.30065188 0.19807597
0000a0 ed d2 be 3e eb 57 b3 3e 26 df a8 bd fb fe 46 3e
       0.372703 0.35028014 -0.08245687 0.19433205
0000b0 5e fa f3 3e 87 b4 d3 3e b8 17 cd 3e 16 a1 67 be
       0.47651953 0.4134867 0.40057158 -0.22620043
0000c0 00 a8 a8 3e 99 28 d2 3e 72 31 c8 be 8d 0e f9 3e
       0.32940674 0.410466 -0.39100224 0.48643914
0000d0 e4 fe a3 3e d6 6d bd 3e 6e 5e bd 3e ef ba 91 3e
       0.32030404 0.3699786 0.36986107 0.28462932
0000e0 97 51 46 be 75 fb 94 3e ff 2e ab be 09 f1 1c be
       -0.19367062 0.29098096 -0.33434293 -0.15326323
0000f0 4c 40 9f 3e 2e 6b ba be 83 58 d7 be ef 00 e0 3e
       0.31103742 -0.36409897 -0.42059717 0.43750712
000100 69 99 cd be fd 68 bf 3e 68 12 e1 3c d6 68 25 3e
       -0.40156105 0.37384787 0.027474597 0.16153273
000110 03 95 50 3e a4 6d 18 bd 39 99 e2 3e 3a d0 30 be
       0.20369343 -0.037213936 0.44257525 -0.17266932
000120 8b ad 6e be d6 78 78 3e f7 e6 b3 be 02 cd 78 be
       -0.23308389 0.24264845 -0.3513715 -0.24296954
000130 86 bf 9c be ad e9 b3 be e2 10 f2 3e 17 42 c2 be
       -0.3061487 -0.35139218 0.47278506 -0.37941048
000140 52 e3 ae 3e be b3 6d 3e 7d 46 d9 bc f0 5f 74 3d
       0.34157807 0.23213097 -0.02652287 0.059661806
000150 c8 db c5 be 97 df e5 3e cb 4e a1 3e 8b 47 a3 be
       -0.38644242 0.44897148 0.31505427 -0.3189052
000160 4c 58 b2 3e e6 ae 8c bc f9 5e b1 be 36 64 50 be
       0.3483299 -0.017173242 -0.3464277 -0.20350727
000170 29 bc d4 be bc 96 ce 3e 81 89 d9 be 3b 74 76 be
       -0.41549805 0.40349376 -0.4248772 -0.24067776
000180 59 0d 2f 3e a9 f0 c1 3e b3 5e ad be 85 8b b9 be
       0.17094935 0.37878922 -0.33861312 -0.36239257
000190 83 3e a3 3e e5 51 01 be d3 45 a0 be 8e 56 a8 3e
       0.3188363 -0.12628897 -0.31303272 0.32878536
0001a0 d9 a8 ab be c0 0d 85 be c8 47 a9 be 1f 3d c6 be
       -0.33527258 -0.25987053 -0.33062577 -0.38718507
0001b0 67 01 4b be e4 24 82 bd d4 d4 46 3e aa 21 df 3e
       -0.19824754 -0.063546926 0.19417125 0.4358037
0001c0 96 19 97 be ac d5 a7 be d2 0e cb be 64 02 d6 be
       -0.29511708 -0.32780206 -0.39659745 -0.417987
0001d0 9c d5 9a be 36 72 96 be 45 5c 9a be 7a 0f c1 3e
       -0.30241096 -0.2938401 -0.3014852 0.3770712
0001e0 66 8d bd 3d 64 ee a7 3e 4b 53 77 be fb 97 db 3e
       0.09255485 0.32799065 -0.24152867 0.4288939
0001f0 01 cc a4 3d 42 24 32 be 14 55 f9 bd 36 f9 ab be
       0.08046723 -0.17396644 -0.121744305 -0.3358857
000200 42 f1 a8 be 11 0e b4 be ff 77 79 3e b2 61 33 3d
       -0.32996565 -0.35166982 0.24362181 0.04379434
